…
41/41 - 3s - loss: 9.9506e-04
Epoch 94/100
41/41 - 3s - loss: 0.0010
Epoch 95/100
41/41 - 2s - loss: 0.0010
Epoch 96/100
41/41 - 2s - loss: 0.0011
Epoch 97/100
41/41 - 2s - loss: 0.0011
Epoch 98/100
41/41 - 2s - loss: 9.1929e-04
Epoch 99/100
41/41 - 2s - loss: 9.7446e-04
Epoch 100/100
41/41 - 2s - loss: 0.0011
<keras.callbacks.History at 0x22486c60b20>
lstm.summary()
Model: "sequential"
_________________________________________________________________
Layer (type)                 Output Shape              Param #   
=================================================================
lstm (LSTM)                  (None, 60, 50)            10400     
_________________________________________________________________
dropout (Dropout)            (None, 60, 50)            0         
_________________________________________________________________
lstm_1 (LSTM)                (None, 60, 50)            20200     
_________________________________________________________________
dropout_1 (Dropout)          (None, 60, 50)            0         
_________________________________________________________________
lstm_2 (LSTM)                (None, 50)                20200     
_________________________________________________________________
dropout_2 (Dropout)          (None, 50)                0         
_________________________________________________________________
dense (Dense)                (None, 1)                 51        
=================================================================
Total params: 50,851
Trainable params: 50,851
Non-trainable params: 0
_________________________________________________________________
#Now testing the Model Accuracy on Existing data by loading test data.
test_start = datetime(2020, 5, 1)
test_end = datetime.now()
stock_test = stock
test_data = pdr.get_data_yahoo(stock_test, test_start, test_end)
…
